exp/deepsat/deepsat_sr3to10_gru/model_trained.pth (torch, 994171 bytes, 103 tensors)

aggr_forward.msg.fc.0.weight f4 [64, 64]
00000000: d759 76bc 6f27 57bb 516d 1d3e 84d4 03bd
00000010: 1b80 aabd bbf8 033e a862 ea3c 09a6 49bd
00000020: 06f0 883d fe98 833d 7ee9 5abd 90e8 4abc
00000030: 49a8 8a3d 5a68 9d3d a6a0 fb3d f65c 2fbd
00000040: 290f 18be b3ad eb3b c474 fd3d 031c ac3d
00000050: 6d7e 33be ce6f f5bc ffe4 863d de97 b4bd
00000060: eda7 053d 037c 033e 5727 7dbd b4ba 1d3d
00000070: 76b5 023e d6ac a0bd b04f a5bd ac5c 193c
00000080: a10b a43c 4953 ddbd 1361 8bbc 4ba0 adbd
00000090: 13e5 363c 03ae d1bc a329 d7bb 37bf 87bb
000000a0: c913 af3d 55ca a7bd 5c73 1e3e 27c6 893c
000000b0: dc0c 51bc b5af d1bc f953 32bd 9822 a8bd
000000c0: 929a cd3d dad5 a6bd 2eb8 bfbd a218 3fbd
000000d0: c1fe 903d 10d1 69bd ef19 ef3d 0328 173e
000000e0: cf56 153e c257 343e f6f9 d03b 1c04 653d
000000f0: 1a37 21bd dab0 f73d 4344 c13d c9a3 0fbb
00000100: 730c 15bd 1a41 9d3d 76e4 12bd 7821 37bc
00000110: 0c83 aa3c 2486 e4bc 42ac a6bd 1a6b df3b
00000120: 9168 32be 1ba7 ee3d 237d 5b3d f708 8cbd
00000130: c29d 033c 8230 f9bd db5f 33ba 9291 b43d
00000140: 9d54 eb3c e717 14be 22ce ff3d 840b 85bd
00000150: a8c5 843d 6f53 b03d 63f1 c93c bced adbd
00000160: b821 7cbe 096e 87bd 287b 913d 412b 723c
00000170: ca12 6e3d e09b b83d 6dc4 8fbd 6b14 2ebd
00000180: d824 783d 6097 e83c a9d0 853d 4498 19bd
00000190: 8bdc 9bbd e22c 343c 2860 5a3e cd68 c83d
000001a0: 38d5 50bd 5e10 7a3d c562 24bd d7d7 f03d
000001b0: ddfb 4b3d cfb1 4c3a 27c5 2cbd 759b 62bd
000001c0: b8b7 933d 3605 9dbc c2fd 12bd ed8b fc3a
000001d0: c797 f6bd f357 5fbb 314a 71bd c644 e23c
000001e0: c6b5 00be 4a9f 8f3d 7510 b3bd 8721 113d
000001f0: 168f 363d 6baa d63d 648a 603d 4bb2 533c
00000200: 3578 58bd dcc1 de3c cd0b f5bc ca99 c6bd
00000210: 7a9f 103c d2bc 033e 666c 90bb 60bd fb3c
00000220: 10d5 ec3c d773 1d3b 3860 0e3c bde5 983d
00000230: 6d81 f13d 18c2 3f3c 5719 063d c83c 8cbd
00000240: a180 a93d 0bd4 1a3d 9afc c8bd 89a6 0ebe
00000250: 48bf 83bc 229a f93d 3b74 a5bc fff9 55bd
00000260: 3da8 3d3e 1072 ef3c 4723 dc3d 241a 1ebd
00000270: a1c6 0b3d fbfd 1039 88f1 e6bd 8be5 c8bc
00000280: feb1 6fbd b3a8 12bd 3bfd d4bd fe6f 77be
00000290: d2f7 663d 37c0 55be d17f 85bb 416f aabc
000002a0: 3c97 4f3d 4e94 cbbd f49b 643d 95d2 86bd
000002b0: 3dc6 8cbb a95f 8f3c 3ab0 25bd b12c cd3d
000002c0: 4e3c 243e 4180 293d c693 823d 30b7 ca3d
000002d0: 524d 6b3d 13aa 30bd 1a5b bf3d 46df 07be
000002e0: 71cc cabd 72c7 183d 62b3 983d cc85 1f3d
000002f0: 1116 76bd c72d 95bd 8af7 97bd 511b 51bd
00000300: 6273 94bc 9f30 cb3d 32c3 233e da01 053c
00000310: 0292 a43d 4d83 32bd 8f70 e9bd 82db 4b3d
00000320: 6e66 b8bd 1c1a 263e 6109 43bd f459 033e
00000330: 6aba 483b f2e4 ba3d efc8 41bd 13a1 143d
00000340: 26c2 613c c0f5 47bc fb85 a93c 9982 333e
00000350: a7ae 55be 9e18 88bc 3e27 023e 764f 5d3c
00000360: 9372 5cbd 8b18 233d 18f8 e8bd 3ef2 b63d
00000370: 4af8 e5bd 2acb 773d 1c88 c8bd 38d1 463d
00000380: 7c79 ec3c a8ab 1f3e ef63 be3c ec73 16be
00000390: d49d 643d f5f6 b9bc ba2b a23d 4de2 ee3b
000003a0: 7ef2 48bd e679 98bd ef9a 6c3d b47b 943c
000003b0: bcb9 cf3d 1e39 b93d ac1f 9dbb 6fe2 2bbd
000003c0: 8e8c 1dbd 3f46 8cbd 9d21 92bd 151e b93d
000003d0: 47b4 f03d 14a5 dabd bfc9 9cbc 891e a73d
000003e0: 7870 593b 7529 fd3d 04f9 dabc 1d26 253d
000003f0: 9636 2fbd e072 373d 04bd 0c3e 253a 56bd
-0.015036068 -0.00328299 0.15373732 -0.032185093 -0.083252154 0.12887852 0.028611496 -0.04923061
0.06686406 0.06425665 -0.05344533 -0.012384549 0.06770379 0.07685919 0.12286501 -0.042813264
-0.14849533 0.0071923374 0.12375787 0.0840378 -0.17528696 -0.02996054 0.06586646 -0.08818029
0.03263085 0.12840275 -0.061805096 0.038508132 0.12764534 -0.07845466 -0.0807184 0.009360474
0.020025076 -0.10806901 -0.017014062 -0.08477839 0.011163014 -0.02559567 -0.006566243 -0.0041426676
0.085486956 -0.08192889 0.15473694 0.01681812 -0.012759414 -0.025596479 -0.043537114 -0.08209723
0.100392476 -0.08146258 -0.09361301 -0.04665435 0.070798405 -0.057084143 0.11674868 0.14761357
0.14583896 0.17611602 0.006377454 0.055912122 -0.03935919 0.12094279 0.09436848 -0.0021917692
-0.036388826 0.07678433 -0.03586241 -0.011177413 0.020814441 -0.027895994 -0.08138324 0.0068181874
-0.17422701 0.116529666 0.053586137 -0.068376474 0.008033218 -0.12167455 -0.00068425917 0.08816828
0.02872687 -0.14462243 0.124904886 -0.06496337 0.064830124 0.08609664 0.024651235 -0.0849261
-0.24622238 -0.066127844 0.07103568 0.01478082 0.058123387 0.09014106 -0.07019887 -0.04249994
0.060582012 0.028392494 0.065339394 -0.037498727 -0.076104246 0.010997029 0.21325743 0.09785614
-0.05098459 0.061050765 -0.040133256 0.11759918 0.049800742 0.0007808478 -0.042180207 -0.055324037
0.07212776 -0.019167524 -0.035886534 0.0019267775 -0.12040668 -0.0034079521 -0.058908645 0.027620684
-0.12569341 0.07012804 -0.08743373 0.035432365 0.04457005 0.104817234 0.05481948 0.012920926
-0.052849013 0.027192049 -0.029912854 -0.09697302 0.008827085 0.12864998 -0.0044074534 0.03072995
0.02891019 0.0024025345 0.0086899325 0.07465694 0.11792264 0.01170399 0.03273901 -0.068475306
0.08276487 0.037799876 -0.09813805 -0.13930716 -0.016082421 0.121876016 -0.020197025 -0.052240368
0.18521209 0.029229194 0.10748916 -0.03859915 0.034124974 0.00013827525 -0.11276537 -0.024523517
-0.058519356 -0.035805415 -0.103998624 -0.24163815 0.056388684 -0.20874105 -0.004074075 -0.020805003
0.050681338 -0.09940396 0.05581279 -0.06583134 -0.004296093 0.017501669 -0.040451266 0.1001829
0.1603863 0.041382078 0.06375842 0.098982215 0.057446785 -0.043130945 0.09343548 -0.13268766
-0.09902275 0.03729958 0.074560896 0.038945958 -0.060079638 -0.07284122 -0.07420261 -0.05105144
-0.018121425 0.09921383 0.1599243 0.008118117 0.08035661 -0.04358225 -0.11398422 0.049769886
-0.09003912 0.16220897 -0.047616366 0.12827283 0.003062869 0.09125699 -0.047310766 0.036286425
0.013779199 -0.012204587 0.02069377 0.17530288 -0.20867406 -0.0166133 0.12710282 0.0135077145
-0.053820204 0.039818328 -0.11375445 0.08932923 -0.11228998 0.060496487 -0.09791586 0.04853937
0.028866522 0.15592825 0.023241011 -0.14692658 0.05581458 -0.022700766 0.079184964 0.0072901607
-0.049059384 -0.07445125 0.057764944 0.018125392 0.10142848 0.09044097 -0.0047950353 -0.04196399
-0.03846412 -0.06849336 -0.071353175 0.09038941 0.11753135 -0.106760174 -0.019139169 0.08160121
0.003317861 0.12361423 -0.026730068 0.04031955 -0.042776667 0.044787288 0.13743979 -0.052301545

aggr_forward.msg.fc.0.bias f4 [64]
00000000: 5025 ab3d 8149 9c3d 1298 cbbd 035d 873d
00000010: 1a32 1cbc e115 4e3d 9f93 4cbd 62d8 d33c
00000020: d270 823d ef5d dabd 6148 bc3d 4661 9f3c
00000030: 15c4 d93c 9921 8a3c 9feb a1bd 17ed f0bc
00000040: 4834 ebbd 9224 ba3d 560c 27bd cb8f 9e3d
00000050: 739b 3b3d 9905 06be fe02 d5bd 63de 8ebd
00000060: fbe7 6e3d d2ad e33b 1b79 c5bd 5952 c93c
00000070: bccc 99bd aa41 8b3c 8c41 9d3d 8be8 0cbe
00000080: 6531 90bd fd5a a93c 26e4 b4bd d72c 573c
00000090: 33f3 443d 2eb8 69bd 6801 a7bd f37d f2bd
000000a0: ffbb a83d 706e 31bd 7ed6 bd3d 5dbc 2d3c
000000b0: cf8c bb3d f421 253e 22bf 463d cd9a 45bc
000000c0: a6d1 a63d fde9 183d 6176 333e aad2 323d
000000d0: 0c31 423d 51eb 5fbd e56a 063e 113a 8bbc
000000e0: b0ff b9bd 9f17 bb3d 38ce b2bc fe53 0fbe
000000f0: 534a d6bb f77e 163b cf46 0fbe 7007 513c
0.08356726 0.07631207 -0.099411145 0.066095375 -0.0095334295 0.050313834 -0.04994547 0.025860015
0.06369175 -0.10662448 0.09193493 0.019455563 0.026582757 0.016861724 -0.07906269 -0.029409928
-0.11484581 0.090890065 -0.04078325 0.0774227 0.045802545 -0.13088073 -0.10400961 -0.06976011
0.058326703 0.006948211 -0.0964224 0.0245754 -0.07509753 0.016999085 0.07678518 -0.13760583
-0.07040671 0.02067327 -0.08832578 0.013133249 0.048083495 -0.057060413 -0.08154565 -0.11840429
0.082389824 -0.043318212 0.09269427 0.010603991 0.091577165 0.16126233 0.048522122 -0.012060833
0.08145456 0.037332524 0.17525627 0.043657936 0.047410056 -0.054667775 0.13126715 -0.016995462
-0.09081972 0.09135365 -0.021826848 -0.13996884 -0.006539622 0.002296386 -0.13991855 0.012758121

aggr_forward.msg.fc.2.weight f4 [64, 64]
00000000: 2930 de3d c87d 3bbe be9b e7bc ceb8 bfbb
00000010: 0969 c83d f421 acbd 2e24 563d 8d7a 05bd
00000020: 8278 5b3c 4ba1 97bc 3656 c2bc 0d2d 023e
00000030: 149c ef3d 2986 a73b d8f7 b63d 1a37 263e
00000040: 2384 1fbb ff4b a23d bc69 bbbd 0e58 103d
00000050: ec8e cd3d abeb 82bd 1b37 4a3d 2175 263b
00000060: b2fd d63d 4760 8d3d fc6f 063d c0a4 113e
00000070: afb8 2abd 6799 96bd 7f78 debd 74ee 103e
00000080: b12e bebd 69b3 e33c 0fa8 69bd b8ef 4d3a
00000090: 8c54 ba3d 60e7 cc3d 807f 7fbd 97cf 9a3d
000000a0: e7a0 dbbc 6b90 9fbc 84d6 40bd 4487 1d3d
000000b0: ad0a 983d 266c 09bd 29c2 aa3d 1be6 4b3d
000000c0: 74a0 a0ba b28a 1f3e f376 8abd ca48 233c
000000d0: 798d 753d 7168 74bd e870 31bd fd02 d4bb
000000e0: 045b 76bd afca c13c 374e dc3d 4036 37bd
000000f0: a0cd 08bd 44f5 463c 91d6 90bc 8057 51bd
00000100: 53bb 4abd 6337 5e3c 0cfa 853d 010d c13d
00000110: 882d ab3d 222f 163e 7752 fcbd fd0c 92bd
00000120: c3a1 30bd 8cfa f13d 4c3a 5bbc ebb3 163c
00000130: 3290 4dbd 9a2b ecbc 3789 ad3d 78cf 8c3c
00000140: c3a4 c43d ba1d 12bd 77f0 01be dceb 6abd
00000150: 4336 023e 3ba8 d4bc 9010 ce3a b4b2 513e
00000160: b40a 5bbe d1af 0e3d 8271 7cbd 43a7 073d
00000170: 1126 093e 6122 e63d 3d58 1a3d ca2c 07bd
00000180: 4688 aabd 968f d3bd dc80 7f39 ac7b 983d
00000190: 573c 153d caef 5e3d 1968 c83c ac3b b9bd
000001a0: eb7a 47be b231 cd3d af2b 60bc 74cc 1b3d
000001b0: 9b44 12bd e24c 84bc cdd2 cabd 7c82 92bd
000001c0: 3a8d c5bd 11aa bf3d 4a53 b8bc 93a5 8a3d
000001d0: 1c19 cfbd c313 9d3c 43df 07be 7f80 9e3d
000001e0: bd24 7e3d 326e 293d 7de5 c53c bdf7 533d
000001f0: 2a4c 03bd a5e1 eb3d 82fd babb e5bf 32be
00000200: dbba a3bd 52a8 33bd 9503 92bc 6561 303c
00000210: 8869 76bd 51a8 e6bd 79bc 7bbd 984f 63bd
00000220: df60 05bd dad2 90bd a382 dfbd d2a5 d13d
00000230: 5519 81bc ab15 03be 4616 8e3d c2aa 3d3d
00000240: cfe4 393e 7b73 b93d 73c0 9e3d 7392 f43b
00000250: d442 01be cbaa d73d 00eb 12bc 60ce 4abb
00000260: cd4e 09bd d732 43bc c818 853d f51f acbd
00000270: e8e0 09be 7215 313d b6c9 903d 2916 423d
00000280: eb11 633e 403e 6dbe ae73 aa3c e491 0bbe
00000290: 5209 ab3d 9b8e debd f9fb 403b ab7f d3bb
000002a0: 8f21 3d3c acaa 643d 5860 ddbd db11 e6bd
000002b0: f7cb 2ebd 8c2a d6bd 8705 7dbc 36df 6d3d
000002c0: ff72 1b3d ec9c 7ebd 2931 08be 0c5d 0abd
000002d0: df85 81bd b2c3 9bbd 69e8 6dbd 38f6 6c3d
000002e0: 5415 d73d f1ec 453d 9010 23bc 14ff 6cbd
000002f0: b7ae d5bc ed73 723c 16d1 503e e766 ffbc
00000300: c2c1 b53d 0d6e 0c3d f49e b93d eea6 62bd
00000310: ec2e 1b3d be9d c03c 47d0 b53b 2bf2 c93d
00000320: 221c 903d c832 873e 7a61 8cbc 6db1 09bd
00000330: f090 253d 27bf ba3d c4cb 8a3e f27b f73c
00000340: 6fa7 a03d 5257 3dbe 0d50 b93c af74 c2bd
00000350: 263b c13d a32e 8ebd 935e 173e 1bb3 273e
00000360: 06c8 27be d457 fb3c 40d9 77bd c336 a5bb
00000370: 48e1 4a3b 312b 62bd 0697 513d c6dd 863d
00000380: b84e 573d 74fe c7bd 25ed 0fbd f987 0b3d
00000390: 0ce9 493d 4617 ac3d 7055 6b3d efa3 023d
000003a0: 3217 7cbe de05 013e 10a8 bcbd bb84 a73c
000003b0: 5d3d acbd be9e 00be 49d6 943b 2812 5c3d
000003c0: 7c8a 4f3d ca17 62bd 02d4 b9bd e8e1 f23c
000003d0: 161b 003c 497e b23d 3571 31bc e359 01be
000003e0: 996a 67bc a8c3 b3bd d78c a6bd 3325 a7bd
000003f0: c258 563e 3942 6dbd 83f9 31bd c5a3 aabc
0.108490296 -0.183097 -0.028272506 -0.005850888 0.09785659 -0.084049135 0.052280597 -0.032587577
0.0133954305 -0.018509528 -0.02372275 0.12712498 0.116996914 0.0051124287 0.08933991 0.16231957
-0.0024340234 0.07924651 -0.091510266 0.035240225 0.10037026 -0.06392606 0.04936896 0.0025399404
0.10497607 0.06903129 0.03282164 0.14223003 -0.041680034 -0.07353478 -0.108628266 0.14153463
-0.092862494 0.02779551 -0.05704504 0.000785585 0.09098157 0.10005069 -0.062377453 0.07559126
-0.026810123 -0.019478044 -0.047079578 0.038459077 0.07423911 -0.033550404 0.08337814 0.049779993
-0.001225485 0.15580252 -0.06760969 0.009966085 0.059949372 -0.059669916 -0.043320566 -0.006470083
-0.060145393 0.023656217 0.10757106 -0.04472947 -0.033399224 0.012143437 -0.017680438 -0.051108837
-0.049495053 0.01356301 0.06541833 0.094263084 0.08358294 0.14666417 -0.123204164 -0.071313836
-0.043123018 0.11815366 -0.013380598 0.009198169 -0.050186343 -0.028829385 0.08473437 0.017188773
0.09601738 -0.03567288 -0.12689386 -0.05735384 0.12716012 -0.025959125 0.0015721489 0.20478326
-0.21390802 0.03483564 -0.061631687 0.033118498 0.13393427 0.11237026 0.037681807 -0.0330017
-0.08326773 -0.10330121 0.00024366699 0.074454635 0.036434498 0.0544279 0.0244637 -0.09044585
-0.19480483 0.10019244 -0.01368229 0.03803678 -0.03570996 -0.016149942 -0.09903488 -0.07153794
-0.096460775 0.093586095 -0.022500653 0.06769862 -0.10112211 0.019174462 -0.13268761 0.077393524
0.062046755 0.041364856 0.02415728 0.051749934 -0.032055058 0.11517648 -0.00570649 -0.17456014
-0.07994624 -0.043861695 -0.017823974 0.010765408 -0.060159236 -0.112625726 -0.06145904 -0.05549583
-0.032563087 -0.07071467 -0.10913589 0.10236706 -0.01575915 -0.12801234 0.06937842 0.046305425
0.1815369 0.09055229 0.077515505 0.007463747 -0.12623149 0.10530623 -0.008967161 -0.0030945763
-0.033522416 -0.011913977 0.06498867 -0.08404533 -0.13464701 0.043233342 0.07069723 0.047384415
0.22174804 -0.23168278 0.020807113 -0.13629872 0.08351387 -0.108670436 0.0029447062 -0.006454428
0.0115436455 0.055826828 -0.10809392 -0.112338744 -0.042674985 -0.10457334 -0.015443212 0.0580742
0.037951466 -0.06216137 -0.13300003 -0.033780143 -0.06324362 -0.07605685 -0.05808297 0.057852
0.10502115 0.048321668 -0.009952679 -0.05786045 -0.026084287 0.014798147 0.2039226 -0.031176997
0.08874847 0.03428464 0.09063521 -0.055334978 0.037886545 0.023512717 0.0055485102 0.09860643
0.07036616 0.2640593 -0.017136324 -0.033616472 0.040421426 0.09118491 0.27108586 0.030210469
0.078444354 -0.18490341 0.022621179 -0.09494912 0.0943511 -0.06942489 0.14782171 0.16376917
-0.16384897 0.030681528 -0.06050992 -0.0050419285 0.0030957032 -0.05521697 0.051169418 0.06585269
0.052565306 -0.0976533 -0.035138268 0.03406522 0.049294516 0.084028766 0.057454526 0.03189462
-0.24618223 0.12599894 -0.09211743 0.020449033 -0.084101416 -0.12560555 0.0045421463 0.053728253
0.05066918 -0.05519847 -0.090736404 0.029648736 0.007818958 0.08715493 -0.010830213 -0.12631945
-0.014124536 -0.08777553 -0.08132332 -0.08161392 0.20932296 -0.057924483 -0.043450844 -0.020830045

aggr_forward.msg.fc.2.bias f4 [64]
00000000: 7eb6 133d b631 72bd b9b6 1ebc a12a 103d
00000010: af6b f7bc ad27 d93c 98e3 c43a 6737 693b
00000020: cf58 0a3d 4266 c73c 1809 cabb d5e8 ea3c
00000030: 3a03 3cbd ba94 82bd dc95 2abc e1a2 d2bb
00000040: 324c ea3c 3ad5 43bd b9ea 95bc 5984 d33c
00000050: 75ac 643d 75f6 4ebd ecd4 283d 09a6 46bd
00000060: 82c0 23bd 5c96 00bd cffc 7b3d f3bf 1ebd
00000070: cf3d b63b 7657 0a3c 622e f03c 3391 e4bc
00000080: df00 1a3c 45c2 3b3d 6a28 8abc 1e55 9cbd
00000090: e4bd 6cbd bd80 84bd 7aef 69bd cdcc 81bd
000000a0: 6ae6 d7bc 9d80 e03c 0bc7 3fbd 547a 1b3b
000000b0: 5b23 66bc 33c4 e43c 3462 613c 048d dcbb
000000c0: 4fc3 18bd 1be2 523d 0df5 3ebc 1498 b6bc
000000d0: e297 55bd 1592 39bd 89cb db3c cec9 13bd
000000e0: 70e7 93bd f71b bfbb 3787 6cbd efb8 1dbc
000000f0: ec47 32bd 42d8 9b3d 4895 e43c 5a3b 093d
0.03606271 -0.05912944 -0.009687119 0.035196904 -0.030202715 0.026508177 0.0015021442 0.0035586
0.0337761 0.024340753 -0.006165635 0.028675476 -0.045901515 -0.063760236 -0.010411706 -0.006428108
0.028600786 -0.04781077 -0.018300401 0.025819944 0.05582853 -0.05052801 0.041218683 -0.048498187
-0.03997851 -0.031393394 0.061520394 -0.038757276 0.0055615674 0.008443704 0.029318992 -0.027901268
0.009399622 0.045839567 -0.016864974 -0.07633422 -0.05779828 -0.064698674 -0.05711315 -0.06337891
-0.026354987 0.027405078 -0.04682068 0.0023724036 -0.014046515 0.027925586 0.013756324 -0.0067306776
-0.037295636 0.051485162 -0.011655104 -0.022289313 -0.0521468 -0.04530533 0.026830452 -0.036081128
-0.072218776 -0.005832191 -0.05774614 -0.009626611 -0.04352562 0.07609607 0.027903214 0.033503868

aggr_forward.msg.fc.4.weight f4 [64, 64]
00000000: 9095 f7bd b9a7 593d a8a9 873d 9e2a 2d38
00000010: dbb3 943d 52bb 18be 217c 88bb 906e 9dbd
00000020: c8af 373d c895 b2bd 5ff6 00bc 6629 49bd
00000030: 3577 933c 3297 94bc 6717 953d 0cd0 8b3d
00000040: ea7a 82bd df15 2a3d 2433 31bd 583d 703d
00000050: d9be 3ebb 10e3 b33c 1bde c23d 6a8d 96bd
00000060: 0fce 76be b428 aa3c 6762 513d d8ee 603d
00000070: ee05 ea3c ccb2 44bc 642f 93bd e892 743d
00000080: ff86 5ebd 1eaa 21bd ff91 da3d 6ae9 b03d
00000090: 0589 63be 607b 823b 0719 c8bc 2e54 ca3c
000000a0: 5313 3d3d 06ca bebb 2ad2 3f3d 09ee 843d
000000b0: 582c 193d 2ac4 1f3d cd2e ed3c 30e3 9c3c
000000c0: b815 a83d 1187 d5bd 8a58 9ebd 4318 d0bd
000000d0: 6635 5abd 7041 12bd 4817 233c c5cb d4bd
000000e0: fef1 8c3d 04ce 5a3e 9c71 693d aae0 a03c
000000f0: b504 7b3d f5f9 bdbd f3ab b63d d629 ecbb
00000100: c404 16be d29d 72bd f672 d33b ee8a e2bd
00000110: 5c5f dc3d 2af2 db3d 0b0c 0fbd 33e9 6f3d
00000120: 4387 6d3c 5b68 06bd 6e7a 39bd 65a7 44bc
00000130: 5a8d 883c 054a a23d 2350 723d 1cc6 a73c
00000140: e5e1 cabb 95f4 993c 3bc4 c2bd ef26 f93d
00000150: 9c02 b23d 19fb eb3d c70e 193e 9fad 883b
00000160: 47bf c6bd 9f6f da3c 07de a23c 31c5 dc3d
00000170: a9d6 dcbb dd2a 35be 8fd5 37bd 9f70 4dbd
00000180: e643 66b9 f5ac 88bc 27ea 7f3c 63dc b1bc
00000190: cf46 a53d 444f 313d 6fb0 5e3d b5e0 fe3c
000001a0: e404 dbbd 6c63 a63d a224 fdbd 05b3 2a3d
000001b0: 5646 aa3b e6e2 ba3d 1da2 aabd 449a 843d
000001c0: 8059 ca3d 2d10 823c 668a 01be 611f 79bc
000001d0: 1043 943d 7be9 e7bd c095 ba3c 11b7 93bd
000001e0: ff86 adbd 2128 e13d 3ebb b43d f47b 0dbb
000001f0: f8fe 55bd 783d 60bd 90e2 d83d 68ed 933d
00000200: ea48 143d 519d 2b3e 2d75 a2bc 9401 813c
00000210: 6990 083c 60e9 093d cc8d 00bd 7693 d6bc
00000220: 1140 103e e429 7cbd e60f 4fbd 97bd 1bbe
00000230: 0526 14be 953b ce3d d1dd 053e 0891 ce3c
00000240: caf1 393d d139 593c 5ef1 ddbd 2aed abbd
00000250: d490 10bd ce2e 0a3e f034 333e ab82 b53d
00000260: 1ea3 96bd 0db5 dabc 2b91 e9bc 07f3 5dbe
00000270: c0ad 8d3d 7677 113e 3b9e 88bd bd7e 4e3c
00000280: a123 5b3d 2f76 2ebd ff8a bd3d 1464 d73d
00000290: 47ab 2b3d 7a02 843d e3e1 7bbd 74c0 cfbd
000002a0: cd04 56bb 4e92 813d c044 f03d 23c7 ef3d
000002b0: ead8 9d3d 9be2 80bd cdaa 5c3c e695 cb3d
000002c0: 8e84 c83d cbdb 03be 6d72 f13d 571c 99bc
000002d0: d583 5f3c d116 cabd 7476 7b3d 68fd 71bd
000002e0: 61c1 393e cf23 cdbd 1f15 c43d c381 963d
000002f0: 9929 bd3c e62a d7bd baaa 1ebe e7a0 33bc
00000300: 162e 073d ac60 c3bd ca4b a5bd 6a94 b5bc
00000310: a9b7 c6bd 17aa 98bd e82f 013d 33d7 56bd
00000320: bf7e 443d dbc5 febc f647 053e fd86 8fbd
00000330: a172 e93a 9106 a9bd d48b 2cbd f4fe 2a3d
00000340: a323 863d ed10 6e3c 9b54 bc3d 84d5 bd3d
00000350: 708f 9a3c 37e3 f6bd 5329 7fbd db0d 8bbd
00000360: a80f 03be 282e ea3c b418 07bd 2de0 bd3c
00000370: ff4a 963d 0282 d7bd 077e 1abe 7fd6 be3d
00000380: 63f4 f9bd fd27 053d 7358 56bd 21fb 6bbd
00000390: 834f b43c 274c a3bc d9a7 ecbd a333 3abd
000003a0: 8e15 35bd b9e6 c7bd 21b5 dbbd 9c96 f1bd
000003b0: 2f28 3d3d a19f d4bd 518d 87bd 4c71 80bd
000003c0: dfee 833d 9083 81bd 6974 d5bd 192f 273b
000003d0: 4e7b 5fbd 27ce 8ebb e7d1 7dbd 51e3 eebc
000003e0: 59e0 1bbd e2a5 1e3e ae05 453d f104 253d
000003f0: b009 1d3d d384 8ebd 9b5b c2bc 926c f53d
-0.12089074 0.05313847 0.06624156 4.1286105e-05 0.07260867 -0.14915207 -0.004165188 -0.07687104
0.044845372 -0.08719975 -0.007871239 -0.049111746 0.018001178 -0.018138502 0.07279854 0.06826791
-0.063711 0.041524764 -0.043261662 0.058652252 -0.0029105453 0.021958858 0.095150195 -0.07351191
-0.24102043 0.020771362 0.051119234 0.05491528 0.02856728 -0.012005519 -0.071867734 0.059710413
-0.05432796 -0.039468877 0.10672378 0.0863827 -0.22220238 0.0039819926 -0.024425996 0.024698343
0.046161007 -0.005822423 0.046831287 0.06490714 0.037395805 0.039005436 0.02895298 0.0191513
0.082072675 -0.104261525 -0.07731731 -0.101608776 -0.05327358 -0.035706937 0.009954281 -0.103904285
0.06882094 0.21367651 0.056993112 0.019638378 0.061283786 -0.09276191 0.089195155 -0.0072071357
-0.14650255 -0.05923254 0.0064529134 -0.11061655 0.10760376 0.107395485 -0.034923594 0.058572005
0.014497581 -0.032814365 -0.045282774 -0.012002801 0.016668964 0.07924274 0.059158456 0.020480208
-0.0061914795 0.018793384 -0.09510084 0.12165629 0.08691904 0.115225025 0.14947043 0.004171088
-0.09704452 0.026664553 0.019881262 0.10779799 -0.0067394567 -0.17692132 -0.0448814 -0.050156232
-0.00021959803 -0.016684035 0.015619791 -0.021711534 0.08070146 0.043288484 0.05436748 0.031113008
-0.10694292 0.08124432 -0.12360503 0.041674633 0.005196373 0.09125309 -0.08331702 0.06474736
0.09880352 0.015876854 -0.12650451 -0.015205235 0.07239354 -0.1132383 0.022776484 -0.072126515
-0.08473014 0.10993982 0.08824776 -0.0021588774 -0.05224511 -0.05474612 0.10590088 0.07223016
0.03620235 0.1675923 -0.019831264 0.015747823 0.008335211 0.03366983 -0.031385228 -0.026193362
0.1408694 -0.061563388 -0.05055227 -0.15209042 -0.14467628 0.10069958 0.13072897 0.02521564
0.045396604 0.013258413 -0.10837053 -0.08394845 -0.03529437 0.13494417 0.17500663 0.088628136
-0.07355331 -0.02669766 -0.028511604 -0.21674739 0.06917906 0.14205727 -0.06670805 0.012603459
0.053500775 -0.042593177 0.09255027 0.10517135 0.04191139 0.06445785 -0.06149472 -0.101441294
-0.003265667 0.063267335 0.11731863 0.11707904 0.07707389 -0.062932216 0.013468456 0.099407
0.09790908 -0.12876813 0.11789403 -0.018690271 0.013642271 -0.09867633 0.061392263 -0.059079558
0.18140174 -0.100165956 0.09574341 0.07348969 0.023091124 -0.10506229 -0.15494815 -0.010963655
0.033002935 -0.09539923 -0.08071096 -0.022165496 -0.09702999 -0.07454317 0.031539828 -0.052451324
0.047972437 -0.031100204 0.13015732 -0.07008169 0.0017810651 -0.082532056 -0.042125538 0.04174705
0.06549766 0.014530403 0.09195825 0.092692405 0.018867224 -0.120550565 -0.06229527 -0.06789752
-0.12798941 0.028586462 -0.032982543 0.023178184 0.07338523 -0.10522844 -0.15087138 0.09318256
-0.12204816 0.03250884 -0.052330445 -0.057612542 0.02201057 -0.019933773 -0.11555452 -0.0454594
-0.04421001 -0.09760804 -0.10727907 -0.117963046 0.0461809 -0.10382009 -0.06618751 -0.0627161
0.064420454 -0.06323922 -0.10422594 0.002551025 -0.054560952 -0.0043580714 -0.061967757 -0.029161127
-0.03805575 0.15492967 0.04810112 0.040287916 0.038339317 -0.06958928 -0.023725322 0.11983599

aggr_forward.msg.fc.4.bias f4 [64]
00000000: 149a 073d 9abe 7e3c 93ba dbbc c3fc 90bd
00000010: 2c46 e2bc a135 bb3d c17f 4e3d 32a8 09bd
00000020: 9d3a fcbc fffc ccbc 5b23 8cbc 9471 9a3d
00000030: 4db7 e63c 5bc0 c2bd 31d3 d53d d8d7 bc3d
00000040: a8ee b23d 83ce 2d3c e4a6 9e3d 838a be3c
00000050: 27fe 07be a68b 90bd 52a2 9bbd d170 b13d
00000060: 578e 70bd 3dc2 573d 8196 94bd b836 97bd
00000070: 9239 c33d e323 9cbd 867b 8d3d 2e92 e6bd
00000080: 1984 85bd 05a1 053e 219f d9bd 57c0 d2bd
00000090: 6ea2 e53c 0a78 f0bd 90ce 8b3c 455f d53d
000000a0: 9a07 a3bc 09eb b83c e439 8bbd 4fc7 383d
000000b0: e967 c2bd 0ecc ba3d d994 afbd aa53 92bd
000000c0: 882e ee3d 5576 e53d f325 a03d 3d66 b73d
000000d0: 38cf c23d 01f7 fb3d 481d 7ebd 375e 0c3e
000000e0: 3c05 1abd e2a7 c63c dcfa 583d 6754 89bd
000000f0: d025 df3d 37e3 8e3d 5d8c 23bd 4ded 5ebd
0.033105925 0.015548373 -0.026822364 -0.070794605 -0.027621351 0.09141088 0.050414804 -0.03360767
-0.030789668 -0.025022982 -0.017106703 0.075411946 0.028163576 -0.09509345 0.10440672 0.092208564
0.08736926 0.010608318 0.077466756 0.023259407 -0.13280545 -0.07057886 -0.075993195 0.08664096
-0.058729496 0.052675474 -0.07255269 -0.07383484 0.09532465 -0.07624032 0.06908326 -0.1125835
-0.06519336 0.13049705 -0.106260546 -0.10290592 0.028031554 -0.11741646 0.01706627 0.10418562
-0.019901086 0.022573011 -0.06798151 0.04511195 -0.094924755 0.091209516 -0.08573312 -0.07144864
0.11629969 0.11204211 0.07819738 0.08955047 0.0951218 0.12302972 -0.062039644 0.13707815
-0.03760265 0.024249975 0.052973613 -0.067055516 0.10895884 0.069769315 -0.039928783 -0.054425526

aggr_forward.attn_lin.weight f4 [1, 128]
00000000: 5157 913c 3d6e 95bc cb65 62bc 9de3 8fbc
00000010: 43bd cd3c 8aa9 033d e894 86bc 51ad 9e3b
00000020: 8e17 0ebd de96 293d 69f5 b73c 75e0 52bd
00000030: 6c29 e038 3b30 633d bcaf 9ebc 6189 13bd
00000040: 84c3 343d 0d3a 4a3d c5f9 7d3d aad9 cebb
00000050: 5305 a8bc ec2b aabc 1f84 6fbc 6364 f8bc
00000060: 9652 e0bb d557 28bc 1bd3 273d a0a7 473d
00000070: 2e30 243d 8e2a 29bd 1bb9 863c 91de e3bc
00000080: 7287 04bd 61fe cebc 1804 593a 1d5b 273d
00000090: 068a 5abc 77b8 813c 207c 40bd e020 b23c
000000a0: 08aa 0ebd 2fdd 32bd ae27 37bc 866e 1f3d
000000b0: 5c34 66bd 2c5c 26bc 10c1 1bbc bd3c 40bd
000000c0: c9dd b43c ef9a 53bd 670b b7bb e501 36bc
000000d0: 38d5 f3bc b4df 763d cd54 df3b 921e 763c
000000e0: 6e07 a03c e950 8d3c 52d8 993d 5a7e bb3b
000000f0: dd9f 093d 08c9 863d adb3 de3b 0911 933b
00000100: 8e3f 923c 53cc 6cbd 1838 b73c 5bf7 38bc
00000110: 58d1 73bd 76f9 4bbd 71c5 ccbb 0773 ac3b
00000120: b884 9ebd 703f 99bc 48b4 90bd f350 7f3c
00000130: 94bc 113c 2953 093d 26df 62bd bcb9 ce3d
00000140: 1eb7 213d 37e4 433d dd90 a13d ac31 bf3c
00000150: a5ad 26bd 3343 0f3b 56d8 6ebc b67c 36bb
00000160: 2896 c2bc d353 403d bcfc 82bd be5b 8ebc
00000170: c6a7 383d 4945 7cba 9322 aa3a 452d abbc
00000180: 1333 a93d 0f8b 2c3d 27d1 173d f527 d83c
00000190: 5d1a 2abd 14ea f33c 8a0d 7abd 6dd7 bc3c
000001a0: c7d2 ecbc e7fc c13c d44d debc 41c0 c8bc
000001b0: 84ce e23d bd10 abbd f6ce 4e3b e25a 383d
000001c0: 92f9 a13d 0174 46bd c1c0 6d3d 14d9 27bd
000001d0: 088c d1bb 5b01 b1bc c4d1 64bc 276d 813d
000001e0: 171b f23c aba9 6abc 813b 3c3d 6c5f 443c
000001f0: 853b b7bd 7c11 90bc 1972 af3d e818 763c
0.017741831 -0.018241042 -0.013818215 -0.01756459 0.025114661 0.032144107 -0.016428426 0.0048424383
-0.034690432 0.041403644 0.022455888 -0.05148359 0.00010688868 0.055465918 -0.019370906 -0.036019687
0.04413177 0.049371768 0.062005777 -0.0063125687 -0.020510351 -0.020772897 -0.0146189025 -0.030321306
-0.0068457825 -0.010274847 0.04097281 0.048743844 0.04008501 -0.04130035 0.016445687 -0.027816089
-0.032355733 -0.025267782 0.0008278503 0.040858377 -0.013338571 0.01583503 -0.046993375 0.021744192
-0.034830123 -0.04366797 -0.011178894 0.038923763 -0.056202278 -0.010153811 -0.009506479 -0.046932925
0.022078412 -0.051661428 -0.005586076 -0.01110885 -0.029764757 0.060271934 0.006815529 0.015021937
0.019534793 0.017250495 0.07511963 0.0057218494 0.033599723 0.065813124 0.0067963214 0.0044881147
0.01785257 -0.057812046 0.022365615 -0.011289443 -0.059525818 -0.04979845 -0.006249123 0.0052627358
-0.07740158 -0.018707007 -0.07065636 0.015583265 0.008895058 0.033526573 -0.055388592 0.1009402
0.039481275 0.047825065 0.078889586 0.023339115 -0.040692944 0.0021860122 -0.014577946 -0.002784533
-0.02375324 0.04695494 -0.063958615 -0.01737773 0.045081876 -0.00096233614 0.0012980275 -0.02089561
0.08261695 0.042124804 0.037064698 0.02638624 -0.04152905 0.029774703 -0.061048068 0.023051942
-0.0289091 0.023680164 -0.02713672 -0.024505736 0.11074546 -0.08352802 0.0031556464 0.045008548
0.0790893 -0.048450474 0.058045153 -0.040978506 -0.006394867 -0.021607092 -0.013966028 0.06319647
0.029553933 -0.014322679 0.045955185 0.011985641 -0.08946899 -0.017586462 0.08566684 0.015020587

aggr_backward.msg.fc.0.weight f4 [64, 64]
00000000: e2d3 ea3c aa54 fcbd 83be e33d d268 db3d
00000010: 1138 5d3d 4db0 333e 4a8f eb3c 9911 a6bb
00000020: 0b5f 8e3d ef97 de3c 3391 a63d 93f2 01bd
00000030: 2bfd c43d 7165 b43d cce7 d9bd 4b06 d23b
00000040: 18d1 8a3d 34f0 d1bd 8931 d0bd 86c1 1b3c
00000050: 3743 0dbd 0f7a 69bd 4f5d e8bd f692 2abc
00000060: b7a8 93bd ab53 f6bd b3c3 8c3d fd30 e43d
00000070: ffba 673d 4453 95bd 1ddf f33c f667 f33d
00000080: a64a 083d 9cbe 1c3e 9329 2e3d c684 a23d
00000090: 639f 813d 6815 dfbd 27f3 d03d bdad 173e
000000a0: 7213 053c e193 a7bd a717 edbc d455 ae3d
000000b0: 7c86 91bd 5127 6e3c 081f 783b f6f5 563d
000000c0: 2552 633d 9292 54bd 0074 b8bc 8812 053e
000000d0: 3544 1a3d 3cdb cd3d 0275 253e d981 a3ba
000000e0: 0e0f 163e 1ad8 7c3d 63a0 a33d e936 40bc
000000f0: 53b6 17be 6de6 063e aaa2 53bd 3db1 c7bb
00000100: c07d 39bd dfb2 363d 3898 c83c 4520 28bd
00000110: de8e acbd c04b 57ba bd3b fe3d 6459 a3bd
00000120: ebb1 053d 31c8 883d 620f 953d e5f3 5dbd
00000130: 4744 db3d f01c 113e 4a6a 8dbd 2dd3 d7bd
00000140: 9d35 ba3d d3b7 483d de93 97bd 8801 ba3b
00000150: 01b3 2fbd 6e70 c4bd d289 44bc e87e d93d
00000160: 7e3b d4bc 78a8 dbbd d460 0e3e dd2d fe3d
00000170: f1b5 a7bd e9ea 99bd 2e46 c53d 3bc1 17bd
00000180: fd17 7cbd 100f 483d d9a2 b5bd 8556 1a3d
00000190: c8d4 a43b 1c9a b33d 7fbc b63d 8ed6 373d
000001a0: f2a3 31be 04ee 32bc 8c2c b437 a87b 3e3d
000001b0: 28f1 283d 9884 1e3e 0dae 133e 87dd 51bc
000001c0: cf54 c03c 7eb2 a13d 7981 c63c 359f 393e
000001d0: cc41 fc3b d99b ea3c 4c7f 383d 3564 86bd
000001e0: cbda 923d 1de6 4e3d a2fe 3f3d 7d00 70bd
000001f0: e462 71bd 73af a63d 3787 c93d 9c75 ffbd
00000200: b318 293d 1c7a 923d d47e bf3d ab74 223e
00000210: 5616 1ebc 2f78 1ebc 3195 873c 86ca 90bc
00000220: 10af 3d3d 2b7f b3bc ee6c 6cbc 3844 103d
00000230: f995 28bd 91b1 b13d bdb2 d73d 9d51 c7bd
00000240: 137a 17bd ed09 983c f703 81bd f17b 843d
00000250: 78a6 1bbe a0e9 f2bd e0fe 2abc 5d90 83bd
00000260: 2279 8bbc 2847 bb3c 1cb9 ec3d 980c b93d
00000270: 2ac4 693c 0337 b33d 54d3 b9bb 1f1a 4f3d
00000280: 21a6 d13d 3fe0 56bb 3f61 703b df5a 093e
00000290: dc20 d0bd 77b1 88bd 4310 7cbd bb2b 513d
000002a0: 9be2 22bd b04d 573c 8280 d33d dc50 8ebd
000002b0: effb a1bc e313 333c 1b17 9cbd 8009 bd3d
000002c0: 2f5e 803c bc84 acbd 1c60 70bd 775d bbbd
000002d0: 9b47 a5bd 9327 793d 3658 bf3d 352c 373d
000002e0: f928 e43d c080 563d d10b 8dbc 2a3c 753d
000002f0: 0b7a 8e3c 14a3 a5bd 2477 ccbd 0ee0 9a3d
00000300: 63d7 c0bd a59e 173e 4d7d aa3c 0078 51bb
00000310: 611f a7bb f8b5 93bd 9062 9c3c 298d 9f3d
00000320: 60b1 153d 7d72 c2bd f761 14bd 30ac eebd
00000330: 11c3 0a3c 3af2 13bd 7a81 c03d bdf7 d5bc
00000340: 90fe c6bd e3fb a2bd 8336 033e 4125 913d
00000350: 529e c53d 1f4a e83d 2536 f53d b2af f7bc
00000360: 5dfb 843d 1868 a8bc d4e8 0fbd 9e38 343d
00000370: 20a1 01be 276d 31bd 1081 39bc 3d18 7a3d
00000380: 322f d2bc 3067 cb3b e946 f2bd 71b5 1a3e
00000390: 903a 58bd addc adbd cd34 b2bc 1fc6 0a3e
000003a0: fc32 50be 2ba2 aa3d d97d b2bd 7f4c f1bd
000003b0: f18e 613d 30bd 2a3e 676c 52bd 35ba 76bd
000003c0: 50af d13d 81e6 1f3d 7371 51bc dc75 533d
000003d0: 5736 07bd 22c9 2d3d c34f c8bc 2c5f 903c
000003e0: bf89 583d 2a4b 603d b6b7 b4bd db34 a63c
000003f0: 1a0e 283e de09 ce3c e78b ce3d 1472 03be
0.028665487 -0.12320836 0.111203216 0.10713352 0.054008547 0.17547722 0.028754849 -0.005068016
0.06951722 0.027172057 0.08133163 -0.031725477 0.096186005 0.08808411 -0.10639915 0.0064094416
0.06778163 -0.10250893 -0.10165698 0.009506589 -0.03448793 -0.05700117 -0.11345922 -0.010411015
-0.07209914 -0.12027677 0.06873264 0.11142156 0.056574818 -0.07291272 0.029769475 0.11885063
0.033274315 0.15307087 0.042520117 0.07935481 0.06329229 -0.10892755 0.10202628 0.1481237
0.008122312 -0.081825025 -0.028941942 0.08512464 -0.07105729 0.014535741 0.0037860293 0.05248066
0.05549826 -0.051897593 -0.02251625 0.1299535 0.037662704 0.10051581 0.16157916 -0.0012474611
0.1465418 0.061729528 0.07989576 -0.011731842 -0.14815645 0.13173838 -0.0516688 -0.0060941265
-0.04528594 0.04460418 0.024486646 -0.0410464 -0.08425687 -0.0008212887 0.12413738 -0.07976034
0.03264038 0.066788085 0.07278325 -0.054187674 0.10706382 0.14171195 -0.06905039 -0.105383255
0.09092257 0.049003433 -0.0740125 0.005676452 -0.04289532 -0.09591757 -0.01199575 0.106199086
-0.025907274 -0.10725492 0.13904124 0.124110915 -0.081889994 -0.07515509 0.09632526 -0.037049513
-0.061546315 0.04884249 -0.08868951 0.037680168 0.0050302483 0.087696284 0.089226715 0.04488235
-0.17347696 -0.010921005 2.1478416e-05 0.046504647 0.04124561 0.15480268 0.14421864 -0.012809164
0.02347794 0.07895373 0.02423166 0.18127139 0.0076982733 0.028638767 0.045043275 -0.06562082
0.07170638 0.050512422 0.046873696 -0.058594216 -0.0589322 0.08138933 0.09840243 -0.12473604
0.04128332 0.07152197 0.093503624 0.15864818 -0.00964888 -0.009672209 0.016550632 -0.017674696
0.04630953 -0.021911224 -0.014430268 0.03522131 -0.04115865 0.08676446 0.105321385 -0.097323634
-0.036981653 0.01855942 -0.06299584 0.064689524 -0.15200222 -0.11860967 -0.0104367435 -0.064240195
-0.017025534 0.022861078 0.11558744 0.09035605 0.014267961 0.08750727 -0.005670944 0.05056202
0.10236765 -0.003278747 0.0036679057 0.13413571 -0.101625174 -0.06674474 -0.061538946 0.051067095
-0.03976689 0.013141081 0.10327245 -0.069490165 -0.019773452 0.010930034 -0.076215945 0.092303276
0.01566991 -0.084237546 -0.058685407 -0.091486864 -0.08070298 0.060828757 0.09342997 0.044719893
0.111406274 0.05236888 -0.017217549 0.05987183 0.017392179 -0.08087745 -0.09983662 0.07562266
-0.09416082 0.14806612 0.020811701 -0.0031962395 -0.005100176 -0.07212442 0.019089967 0.07790596
0.03654611 -0.09494493 -0.03622624 -0.11653936 0.008469359 -0.036119677 0.09399696 -0.026119107
-0.09716523 -0.079582 0.12813763 0.07087184 0.09649338 0.113422625 0.11973218 -0.030235145
0.06493256 -0.020557448 -0.03513415 0.043999307 -0.1265912 -0.043316986 -0.011322275 0.06105827
-0.02565727 0.0062073693 -0.11829931 0.15108277 -0.052790225 -0.08489356 -0.021753693 0.1355214
-0.20331949 0.08331712 -0.0871541 -0.117821686 0.05506796 0.16673732 -0.05137291 -0.060236175
0.10238516 0.039038185 -0.012783396 0.05162607 -0.033010807 0.042428143 -0.024452096 0.017623506
0.05286574 0.054759182 -0.088241026 0.020288875 0.1641163 0.02515119 0.10085278 -0.12836486

aggr_backward.msg.fc.0.bias f4 [64]
00000000: f013 8fbb ee41 393c 6122 babd d387 b1bd
00000010: 395d 4bbc c1cd d43d bcd3 3f3b 69f2 ff3c
00000020: 6dab f53d 5c5e 953b 7e72 95bc e4e7 34bb
00000030: 5685 903d 2e54 45bd 2159 a63c acf9 26bd
00000040: 140b 913d c50e a33d 49b6 91bd 133f bcbd
00000050: 18eb a6bd dffb 423c 70c6 fc3d a5af 8abd
00000060: e749 b53d 6e84 263d e284 a6bd 6517 3fbd
00000070: cf34 85bd c5c0 4b3d 5dc2 c8bc 8c6f c1bc
00000080: b741 3f3d 4e28 0a3d 2f88 7c3c fdfe c63d
00000090: b6fa b7bd 39c6 a1bd 1214 943d eb31 9a3d
000000a0: 00f3 97bd d6a0 b8bd dd2b 6bbd 2846 613c
000000b0: 0e85 6bbc b7a8 bc3d 3b4e 8dbd 94d6 5b3c
000000c0: e57c eb3d b703 eebd 44dd 963d 009a a3bd
000000d0: efa3 683d adb6 423d 0d92 dd3d 1144 9b3d
000000e0: a5dc b6bd fa57 a8bd d4d5 ba3d 731d 8a3d
000000f0: c825 05be fc04 52bd 980d 03be 3103 eebd
-0.0043663904 0.011307223 -0.090885885 -0.086684845 -0.012412363 0.10390807 0.002927049 0.03124352
0.119955875 0.0045583677 -0.01824307 -0.0027604038 0.07056682 -0.048175983 0.020306172 -0.04076545
0.07082191 0.079618014 -0.07114846 -0.09191718 -0.08150309 0.011900871 0.123425364 -0.06771783
0.088519864 0.04065364 -0.08130814 -0.04665317 -0.06504213 0.049744386 -0.024506742 -0.02361276
0.04669353 0.033729844 0.015413328 0.09716604 -0.08983366 -0.07899136 0.072303906 0.07529052
-0.074193954 -0.09015052 -0.05741488 0.013749637 -0.014374984 0.09211867 -0.06899687 0.013417859
0.11498431 -0.11621802 0.07366422 -0.079883575 0.056796964 0.047537494 0.108188726 0.07581342
-0.08928803 -0.08219905 0.09122816 0.06743898 -0.13002694 -0.051274285 -0.12798154 -0.116217025

aggr_backward.msg.fc.2.weight f4 [64, 64]
00000000: f5ea 553c e251 8cbd 9913 953d 3962 26be
00000010: 3a83 963d cce9 0a3d 9303 8b3d 1107 41bd
00000020: 3f3f 4c3d dc75 f9bd 8de6 d7bd 40a8 29bd
00000030: 55d1 8e3d 0b0d 02bc 8624 07be 9a83 8cbc
00000040: cb7b 1dbd 0f5b b43d c8f4 b13d 79c2 1ebe
00000050: c38c c33d bec8 563d 27b1 f23b 1b7c 013e
00000060: 0daa af3d 4762 91bd 5370 ce3d 346d d23d
00000070: 7608 013b efa4 bfbb 87ed 613c 9556 2c3c
00000080: 9533 023e 60c7 2abd 85d9 523e c89c e738
00000090: d204 09be d9be dfbc bf83 35bb e71a 30bd
000000a0: b5e6 593d eff5 c4bc 0f86 b13d 4ade 1a3d
000000b0: 5ee5 b0bd 15d3 68bc ebe5 513c d030 bf3d
000000c0: b4a8 82bd d8ca 23bd 98e7 bbbd 9c06 63bd
000000d0: 48fc 8dbd df65 1d3d 8d6b a8bd 82ef a13d
000000e0: 5d93 183e 9f4c c4bc 7cb2 2bbd a932 d23c
000000f0: a273 10be 2e51 cbbb 98a0 023e d00d c0bd
00000100: c255 64bd 0a0f cdbd c4c5 27be 50e1 18be
00000110: 8c08 abbd 73fc d9bd 8c10 8b3c cc97 d1bc
00000120: 3e5d 12be 3060 b23c b7e2 12bd d562 c2bd
00000130: fe6b 9abc b6f3 53bd 78be 9ebd 4484 933d
00000140: d49d e1bd e149 913d ef32 0d3d 1fa6 34bd
00000150: 987a 053d 5770 d2bd 1565 c63d 0e7e 0c3e
00000160: a4da 14bd 2019 ad3d 5554 f83d 4486 13bd
00000170: 8d23 a1bc 1b8c a53d 674a e5bc 0030 1a3b
00000180: c88a 743d 8e09 2ebc 39ff 3a3d e8aa da3c
00000190: 1fd0 d43c d844 efbc 322d 833d 433e 103d
000001a0: c4ff 73bd 59b6 cf3c ec62 013e 8eb7 d5bc
000001b0: fa30 b2bd e6c6 02bd 854b d63d a1c1 f6bc
000001c0: a411 84bc b16d 09bd c1de ae3c d075 dc3d
000001d0: 205f 213d 3904 07be e849 83bd 7cbb 43be
000001e0: 71ce 5f3d aaf5 5a3e 657d e83d 9708 f23d
000001f0: a845 5e3e 3193 643c 1780 a2bd d3ad dbbc
00000200: ccd1 47bd e405 cabd 86af e33d d822 783d
00000210: 025c 6d3d 6991 d3bc 53b0 973d 02d6 e2bc
00000220: 3771 b13d ce1e 04be 3fd1 e7bb 9928 1fbb
00000230: c83a 853d b642 9dbd 30c6 a13c d42d 65bd
00000240: 3e73 4dbd e83e 623d 69dc 443d 6ea4 73bc
00000250: 8c43 9d3d 6e9c fdbd e67a aebc ed7e 2e3e
00000260: 8177 033b 83b3 f0bd 6ec6 e2bb 8967 d13d
00000270: d995 423e 0e87 df3d 84e6 0fbe f1f0 30bd
00000280: 357b 183e 216c fbbd b277 e13d 53ae e73d
00000290: b0aa b3bd 8579 c63d 8039 183d 3629 bf3d
000002a0: 5c4b 49bd 3f07 8cbd 8b19 853d 8263 e03d
000002b0: 0dce d5bc 07bd ac3c 3375 fdbc 915b 863d
000002c0: c6a4 96bc 0884 a5bc 6194 e3bd e95d da3c
000002d0: 5d9a 0a3c db5e 82bd 6526 24be 32e8 cabd
000002e0: 9aa9 9c3d 170f fcbd d7b1 fcbc 730e b03d
000002f0: 855d aa3d e1fb 72bd b688 1f3d 5cab 1b3d
00000300: 544b 08bb ecf5 e63d ba9e 42bd e39d c2bc
00000310: 1e6d 97bd 2eb9 3b39 3ec9 a63c ad5e d63d
00000320: 6308 44bb 2dec 163e 8c0a 6b3d cfeb cc3d
00000330: cd46 b5bb 14eb 5abd 91ff d2bd dd4f c23d
00000340: 3b6b c13d 5c5a c7bc 60ac 14bc 49e3 f3bc
00000350: c90c 5fbc ded9 963d ceda 06be c813 39bd
00000360: 0759 0ebe b531 93ba 06ef dbbd 3214 2bbd
00000370: d91d 01be 9abb 0bbe 819b cebc 4593 febd
00000380: 29e6 9dbd 6982 5f3d 6700 62be 69e2 c93c
00000390: 4ee1 a23c 442b ee3c ef8e bdbd ee5f 6cbe
000003a0: 2481 2d3d 8564 43bd 5d69 25be e2fa 0bbc
000003b0: 4de6 4b3e bfe9 b53d b785 2dbe 3257 9f3d
000003c0: f578 b7bc 3495 06be 6713 913d ec00 02bd
000003d0: 6a96 a53d 6948 153d a171 9c3d 1bc7 17bd
000003e0: a367 42be f942 7ebd 2bb4 dfbc 2c1b d5bb
000003f0: 34d6 9d3d 9a69 1dbd 62f0 f3bc 64b9 1e3e
0.013056506 -0.068515554 0.072791286 -0.16248406 0.07349248 0.033914372 0.06787791 -0.04712588
0.049865004 -0.12180683 -0.10542021 -0.04142022 0.06973521 -0.00793768 -0.13197526 -0.017152596
-0.038448136 0.088064305 0.086892664 -0.15503873 0.095483325 0.052437536 0.007406372 0.12644999
0.085773565 -0.07098823 0.10080018 0.10274735 0.001968888 -0.005848519 0.013789541 0.01051869
0.1271499 -0.041694045 0.2059079 0.00011044141 -0.13380745 -0.027312683 -0.0027696935 -0.042994406
0.053198535 -0.024043052 0.08668148 0.037809648 -0.08637498 -0.014210482 0.012811164 0.09335482
-0.06379834 -0.03998837 -0.091750324 -0.055426225 -0.069328845 0.03842723 -0.08223639 0.079070106
0.14899965 -0.023962317 -0.041918263 0.025658922 -0.1410661 -0.0062047457 0.12756574 -0.093776345
-0.055745848 -0.10012634 -0.16384035 -0.149297 -0.083512396 -0.10643854 0.016975664 -0.025585078
-0.14293382 0.021774381 -0.035860743 -0.09491507 -0.018850323 -0.051746093 -0.07751173 0.07202962
-0.110164315 0.070941694 0.034472402 -0.044103738 0.032587618 -0.102753334 0.096872486 0.13719961
-0.036341324 0.08452058 0.1212546 -0.036016718 -0.019670272 0.080833636 -0.02798958 0.0023527145
0.059702665 -0.010622395 0.045653556 0.026692823 0.025978146 -0.029207632 0.06405105 0.035215627
-0.05957009 0.025355505 0.12635392 -0.026088502 -0.08700748 -0.031927966 0.10463623 -0.030121626
-0.016121693 -0.033551876 0.021346452 0.107646585 0.03939736 -0.13185205 -0.06410581 -0.19114488
0.054640237 0.21382776 0.11352042 0.11818045 0.21706259 0.013951109 -0.079345874 -0.026816284
-0.048784062 -0.09864405 0.11117463 0.060580105 0.057949074 -0.025826173 0.07406678 -0.027689938
0.08664172 -0.12902376 -0.0070745046 -0.0024285673 0.06505352 -0.0767874 0.019747823 -0.05595191
-0.05015873 0.055235773 0.048061762 -0.014870746 0.07678899 -0.12383352 -0.021298837 0.17040606
0.0020060244 -0.11752989 -0.0069206273 0.10224826 0.19002475 0.109144315 -0.14052778 -0.04319853
0.1489075 -0.12276483 0.11009158 0.113125466 -0.087727904 0.09691147 0.03716421 0.09334032
-0.049144134 -0.068373196 0.064990126 0.109564796 -0.02609923 0.021086229 -0.030939674 0.06560434
-0.018389117 -0.020204559 -0.111122854 0.026656108 0.008459655 -0.063657485 -0.16030271 -0.09907569
0.076495364 -0.12307566 -0.03084652 0.08596506 0.08318619 -0.05932224 0.038948737 0.038005218
-0.0020796852 0.112773746 -0.047514655 -0.023756927 -0.07393859 0.00017902695 0.020359632 0.10467277
-0.0029912225 0.14738531 0.057383105 0.100059144 -0.0055321218 -0.053446844 -0.10302652 0.09487889
0.09444281 -0.024335079 -0.0090743005 -0.029771464 -0.013613888 0.073657736 -0.13169405 -0.04518488
-0.13901149 -0.0011230024 -0.107389495 -0.041767307 -0.12609042 -0.13645783 -0.025220634 -0.12430433
-0.07709915 0.05456773 -0.22070466 0.024644094 0.019882824 0.029073365 -0.09255778 -0.2308347
0.042359486 -0.047703285 -0.16153474 -0.008543702 0.19912072 0.08882474 -0.1694554 0.07780303
-0.022396544 -0.13142854 0.07083779 -0.03173916 0.0808533 0.03644601 0.076388605 -0.037055116
-0.18984847 -0.06207559 -0.02730759 -0.0065034833 0.07706872 -0.038430788 -0.02977771 0.15500408

aggr_backward.msg.fc.2.bias f4 [64]
00000000: 0446 933c 7380 6d3c f617 b13c 22e2 66bd
00000010: 0337 113c 63ce 913c 35dc e0bc d7d9 133d
00000020: b581 21bc 7902 b23c fa00 daba 090b c63d
00000030: ad6a f93c c3bb 0f3c a540 87bc d599 863b
00000040: 8244 743c fe5a bf3b 9ba3 4d3d bb7f 303b
00000050: 10a1 b93b c80e 6f3d 34ef c63c af77 693d
00000060: cf77 b3b9 35ce c6bb 71c7 073d d574 8a3d
00000070: 19dd bcba 7c73 a4bc 2366 bc3c f7f9 37bb
00000080: e0fa 07bc d6ad a33c 2e11 573d 806c 2a3c
00000090: f10f 5fbb 4960 13bc 02c3 3b3d 4a36 cebb
000000a0: 36a0 013d d36c e4bc 8e21 e73c fef7 d73c
000000b0: 43df 553b 64f4 113c d090 2fbd 6331 533d
000000c0: c1b6 bd3d 9109 81bc 2dbc 3a3d 2293 d2bc
000000d0: 80b8 5fbd 7eff 8ebc 7cd9 88bc 4016 ec3c
000000e0: 56a4 923c 98bd fabc 61d0 6d3c 525e 8b3d
000000f0: 4f49 843d 0230 6cbb 25f8 423c 97e5 1f3d
0.017977722 0.014495957 0.02161787 -0.056368 0.0088632135 0.017798608 -0.027448753 0.03609642
-0.009857585 0.021729695 -0.0016632371 0.096700735 0.030446375 0.008772793 -0.016510317 0.0041076937
0.014908912 0.0058397045 0.050204854 0.0026931602 0.005664952 0.058363706 0.024283983 0.056998905
-0.00034230805 -0.0060670623 0.033149187 0.06760565 -0.0014409154 -0.020074598 0.022997921 -0.0028072575
-0.008299559 0.019980352 0.05250662 0.010401845 -0.0034036601 -0.008995124 0.04584027 -0.006293093
0.03164693 -0.027883923 0.028214242 0.02636337 0.0032634295 0.008908365 -0.042862713 0.05156077
0.09263373 -0.015751632 0.045589615 -0.025704924 -0.054619312 -0.017455813 -0.016705267 0.028819203
0.017900627 -0.030607983 0.014515013 0.068050995 0.06459295 -0.0036039357 0.011899983 0.039037313

aggr_backward.msg.fc.4.weight f4 [64, 64]
00000000: 0d39 673d 207a 00be 4444 fd3d 72d6 6dbd
00000010: 4516 cc3d 4025 bfbd 9adf 73bc cc86 0cbd
00000020: aad9 dabd 99e6 143c 1407 09be 677c 1c3d
00000030: dd73 1ebc bd36 bd3d a8e1 e2bd 7b06 02bd
00000040: 9f53 a0bd 3814 76bd a055 a23d 92da ecbd
00000050: d870 823d e1e6 42bd 9b2d b53d a694 c03d
00000060: 1cb2 8e3d a5b0 8cbd 824e 293d ae67 e5bc
00000070: 5e42 78bb 274c c5bd c434 b43d 558a acbc
00000080: 7270 a93d 0c7b a13c 1b18 923c 5546 813d
00000090: eee2 aabd c845 b3bd 6bec c5bd 0811 f93c
000000a0: c227 223e 0b57 a1bd 3c82 883c 5890 3c3c
000000b0: 4de7 bfbc 3f5d f9bb ba5a 0f3e a905 0bbe
000000c0: f599 5d3c e50e 6b3c 8a45 13bd 58ec 69bd
000000d0: 277d 74bd f3f5 57bd 0d31 c5bc d928 9fbd
000000e0: 806d 35bd 3cf6 0fbe 6ce1 b93d 6746 2b3c
000000f0: 3b1c 63bd 1425 92bc f30c 133d 4a5c c63d
00000100: 8095 2bbe 403e 0bbe a0a3 a6bd df1d b03d
00000110: 58f5 7cbd e43d 0b3d 5eeb 123d 9d39 c4bd
00000120: 0c2f dcbc 5a66 8fbd e249 1bbd 8a98 02be
00000130: e7c7 df3d cb4c 943c 2ebc 703c be23 dcbc
00000140: 9ab7 8fba 73ce 543d 4954 d13c f03a 813c
00000150: e24b dfbd 3fea 3b3d 8b42 c0bd db73 b53b
00000160: db9b 263b 428d 9b3d 428b 05be d691 023e
00000170: acbb 79bc 3e95 143e cf59 1cbe ea6c 92bc
00000180: 5f3b 153e 2d24 353c f9f7 9dbd 8379 a5ba
00000190: fba6 17bc 67f1 a5bd 0865 37bd 50b1 ae3b
000001a0: dd26 b13d 1e74 5b3e 0bb4 c0bd 639b 7d3d
000001b0: d1fd 1b3b 72df 973d da30 04bd a2c2 dcbc
000001c0: 26bf a73d 9429 38bd 08fc 8c3d f1e5 bd3d
000001d0: 85fe d83d ba05 bc3c 9967 c33c 1ba8 3fbd
000001e0: c688 91bd e897 013e 3ac5 e2ba 1eef 31be
000001f0: 5371 4dbd baac f4bc 87fb b23d ec83 c3bb
00000200: 8939 48bd 3d6e b7bd fe32 30bd e032 9ebc
00000210: bd6e 50bd b56d d2bd c1c3 933d c083 29bd
00000220: 5cdd 713b e142 a1bd e74f b7bc 497e 84bd
00000230: a15a 08bd f9f1 093e d535 c7bd bcc5 ef3d
00000240: 60ad fdbd 3c00 b8bd 7e60 fb3c 0d00 54bd
00000250: 551d 39be 6655 79bc 4453 18bc c468 42be
00000260: 411f 313e 8799 3e3d e040 4bbc efd2 b4bd
00000270: b87c 88bd 4620 e03c 056a da3c 2d47 2bbb
00000280: 695d d9bd 31a8 46bd f62f 6f3c b6cc b1bc
00000290: b2ec 5b3e fbaf 0cbe 4cc9 20be 3a0f 9ebb
000002a0: dd77 8d3c f4eb 253e 2fd8 9d3c d8a6 87bc
000002b0: e164 563e 53d1 6cbd d4ff 343e 0c2f a1bd
000002c0: 5d20 613e ffc6 263e b06d 0bbe b3be 8abd
000002d0: 4ff3 6e3d eaea 9ebc 7a6e fcbd 13a5 bcbd
000002e0: 3620 79bd b5d3 ef3d bfa4 e73c 9928 c3bd
000002f0: eced f63d 3af3 bfbd 87a5 a83d 1dad cb3c
00000300: e211 17bd 6536 793d f6d3 4dbc 6649 ae3c
00000310: b6e7 ab3c eb10 16bd bb0b 493d 60f2 efbd
00000320: a22a ff3d 422a 783a db35 173d b273 d6bc
00000330: bd81 51bd d685 7c3d 17bc 1f3e c446 153d
00000340: d965 803d fb4d 41bd 5d43 203e 2c33 aa3d
00000350: acdd 00bc 35ef 72bc aa31 593c b38c f8bd
00000360: a781 04bd 422d cd3d eca6 533d d25a 8ebd
00000370: d6ac 873c c18c dabd 9a7d 093c 374d 0a3b
00000380: 261b 73bd 4afc afbd a958 0abd 972d 823c
00000390: 53da 8bbd ed38 d13d ac88 d83b d803 7cbd
000003a0: 0158 c03b 470c b0bd d021 043e 7381 013e
000003b0: a149 093c cf86 ba3d aed5 9bbd e163 27bd
000003c0: 3a56 c13a a6d3 7d3c f989 e8bd 09d1 05bd
000003d0: 9b1d 4b3d c6df fe3a 3021 0f3b af0f e9bc
000003e0: 44fb b23d e65e 743d 1458 c6bd c1fa 473d
000003f0: b567 5d3d 3d85 edbd 080c bd3d 9bfd 1f3e
0.056450892 -0.12546587 0.12366536 -0.05806584 0.09965185 -0.09333277 -0.014884854 -0.03430824
-0.106860474 0.009088182 -0.13381606 0.038204577 -0.009671179 0.09238956 -0.11078197 -0.03174446
-0.078284495 -0.060077876 0.07926488 -0.115651265 0.063691795 -0.047583465 0.08846589 0.094033524
0.069675654 -0.0686963 0.041334637 -0.02800354 -0.0037881355 -0.096336655 0.08799127 -0.021062056
0.082734 0.019711994 0.01783376 0.06312243 -0.08344065 -0.08753544 -0.09664234 0.030403629
0.15835479 -0.0787793 0.016663663 0.011509024 -0.023425722 -0.0076099928 0.13999453 -0.13576378
0.013525476 0.014346813 -0.03595499 -0.05711016 -0.059689667 -0.05272479 -0.02407124 -0.07771463
-0.04429388 -0.14058775 0.09076199 0.010453797 -0.055446845 -0.017839946 0.03590102 0.096855715
-0.16756248 -0.13597965 -0.08136678 0.085994475 -0.061757416 0.03399457 0.035868995 -0.09581301
-0.026877902 -0.07001944 -0.037912257 -0.12753502 0.109268 0.018103024 0.014693303 -0.026872512
-0.0010964752 0.051954698 0.025552886 0.015775174 -0.109031454 0.04587769 -0.09387692 0.0055374927
0.0025422487 0.07595302 -0.13041404 0.12750944 -0.015242498 0.14510056 -0.15268634 -0.0178742
0.1457343 0.011055988 -0.07713313 -0.0012624714 -0.00925612 -0.081026845 -0.044774085 0.005331196
0.08649991 0.21431014 -0.094093405 0.061915766 0.002380241 0.07415666 -0.03227315 -0.026948277
0.081907555 -0.044961527 0.06884009 0.092723735 0.10595421 0.02295195 0.02385311 -0.046791177
-0.071061656 0.12655604 -0.001730121 -0.17376372 -0.050156903 -0.029867519 0.08739381 -0.005966654
-0.048882995 -0.08956573 -0.04301738 -0.019311368 -0.05088686 -0.10274831 0.072150715 -0.041385412
0.0036905622 -0.07874084 -0.022376968 -0.064693995 -0.033289555 0.13471211 -0.097270645 0.11707637
-0.12386584 -0.0898442 0.03068566 -0.05175786 -0.18077596 -0.0152181145 -0.009297196 -0.18985277
0.17297079 0.046533134 -0.012405604 -0.08829295 -0.06664413 0.02735914 0.026661882 -0.0026134953
-0.1061352 -0.048500244 0.014598837 -0.02170406 0.21477011 -0.13739006 -0.15701789 -0.0048235925
0.01726907 0.1620329 0.019268123 -0.01655905 0.2093692 -0.057816815 0.17675716 -0.078703016
0.21985002 0.16286848 -0.13616061 -0.06774654 0.058337506 -0.019399125 -0.12325759 -0.09211173
-0.060821734 0.11710302 0.0282768 -0.09529228 0.12057099 -0.09372564 0.08234697 0.02486282
-0.03688229 0.06084289 -0.012562742 0.021275233 0.020984512 -0.036637228 0.049083453 -0.11716151
0.124593034 0.0009466746 0.036916595 -0.026178215 -0.05114912 0.061651073 0.15599094 0.03644444
0.06269426 -0.04719351 0.15650697 0.083105415 -0.007865351 -0.014827539 0.01325647 -0.12136211
-0.03235021 0.10018398 0.05167286 -0.06950916 0.016561907 -0.10671378 0.008391762 0.0021103153
-0.059352063 -0.08593042 -0.03377596 0.01589088 -0.068287514 0.10215936 0.0066080894 -0.061527103
0.005869866 -0.08596092 0.12903523 0.12647037 0.008379371 0.09107744 -0.076091155 -0.040866736
0.0014750429 0.015492355 -0.11354441 -0.032670055 0.04958878 0.0019445352 0.002183985 -0.028449861
0.08739331 0.059660815 -0.09684768 0.048823122 0.05405398 -0.11597679 0.092308104 0.15624087
